models/BipedalWalker-v3__sac_continuous_action__1__1737715588.pt (torch, 13346 bytes, 12 tensors)

action_scale f4 [1, 4]
1.0 1.0 1.0 1.0
00000000: 0000 803f 0000 803f 0000 803f 0000 803f

action_bias f4 [1, 4]
0.0 0.0 0.0 0.0
00000000: 0000 0000 0000 0000 0000 0000 0000 0000

attention1.query.weight f4 [24, 24]
1.5627023 3.1736848 0.011373368 -0.33333203 -0.14040196 -0.16702256 1.3305352 -0.112629965
0.6128733 0.79608417 0.07306791 -0.008056863 0.15048143 -0.040415343 0.002715061 -0.0048211506
0.03612989 -0.0052927528 0.16002229 0.025787754 -0.15247737 -0.24119972 -0.07559704 0.63517845
-1.1843741 -3.6980832 1.053695 1.5725561 -0.063560575 -0.15825112 1.271909 -0.5466056
-0.87300843 -0.7355699 -0.2730409 1.5947225 0.4337448 0.16215399 -0.85352254 -1.0486913
-0.7604118 -1.0484532 -0.8029221 -0.94347614 -1.0391271 -0.796112 -0.64234054 -1.1647879
1.4842815 4.0766697 -3.1461358 0.05892181 1.6083013 0.14022689 0.27684772 0.05005206
-0.03360149 0.3057883 0.04525954 -0.24416894 0.07875032 -0.06592951 0.13152872 0.18590444
-0.11415507 -0.037598368 -0.004853759 0.04647302 -0.113467105 -0.11555441 0.107873105 -0.5965311
-0.8344986 -1.2999426 -1.6811754 2.0559583 0.9311726 -0.1697798 0.15596691 -0.0038762535
-1.6777989 0.26130298 -0.3169903 0.8649253 0.14652081 0.47951412 -0.29827413 0.02947813
-0.15127856 -0.009116262 -0.062468987 -0.28158215 -0.080690935 -0.045966037 -0.64034665 -1.396134
1.7804073 3.0643806 -1.6854757 -1.4816557 0.416776 0.16453402 -0.07997075 0.09748945
0.25418192 0.27220592 -0.08572324 -0.6300939 -0.16241933 -0.1328316 -0.22988428 -0.16418259
-0.1405197 -0.48412523 -0.33724856 -0.22499199 -0.24657269 -0.26573735 -0.5842226 -0.4294559
-1.2142172 -0.9712197 0.96468276 -2.4308307 -0.3725472 0.03955977 -0.053907674 0.018494854
-0.07389041 0.23727274 -0.4669309 -0.7497439 -0.08337874 0.33244196 -0.07963192 -0.06315494
-0.0753957 -0.14494939 -0.32472602 -0.33462235 -0.22723743 -0.11201096 -0.37357283 -0.23271208
2.49665 4.709911 -1.6000835 -1.157347 -0.7947035 0.15409088 -0.10516466 0.15476233
-0.0010392789 2.2836528 -0.088036895 1.1092763 0.0918571 0.3722735 -0.12296956 -0.2922614
-0.33784324 -0.072323404 -0.053679865 0.0331272 -0.19472815 -0.009961084 -0.30086353 -0.00072669267
0.5694775 0.35861617 0.98651296 -1.6013018 -0.41106698 0.12851353 -1.0134209 -0.17283456
-0.39999822 1.804484 -0.26263684 0.8996733 -0.08582715 -0.001234367 -0.09594607 0.01915226
-0.092831455 0.19941379 -0.1930678 -0.204382 -0.07754517 -0.18639413 0.13211463 0.11652972
0.9295064 2.2360275 0.5664716 -0.88188314 -0.34603873 0.4465843 1.0343484 -0.22891195
0.30485526 0.2743917 -0.49247146 -0.46683118 -0.41857582 -0.6174138 0.64318204 0.67656165
0.74142635 0.82174265 0.76320815 0.78859025 0.52723145 0.8350934 0.5102111 0.43517017
0.37991017 -0.46986505 -0.2284386 0.9726929 -1.1953895 -0.31582403 -0.96047735 -0.21164615
-0.8557592 1.3999063 0.16172768 0.71875024 -0.15554835 0.040502444 -0.39386427 -0.514878
-0.15526213 -0.39337444 -0.41120574 -0.23649928 -0.36867344 -0.03226627 -0.43176156 -0.9569707
-1.0377012 -1.5411023 -0.2220007 -3.6963835 -0.4455273 0.32583943 0.15700004 -0.2859095
-0.29816264 -0.18629877 0.04243198 -0.62734205 0.647404 -0.12634848 0.44439802 0.33543053
00000000: a106 c83f a71d 4b40 5d57 3a3c 7faa aabe
00000010: 88c5 0fbe f607 2bbe fa4e aa3f 8aaa e6bd
00000020: 44e5 1c3f 2ccc 4b3f a1a4 953d ef00 04bc
00000030: ce17 1a3e 8f8a 25bd 2aef 313b befa 9dbb
00000040: effc 133d d46e adbb e2dc 233e d740 d33c
00000050: 0723 1cbe 0ffd 76be 9fd2 9abd 0e9b 223f
00000060: 9299 97bf 65ad 6cc0 7adf 863f 8549 c93f
00000070: 0c2c 82bd 950c 22be eacd a23f 58ee 0bbf
00000080: 7b7d 5fbf 4f4e 3cbf 04cc 8bbe de1f cc3f
00000090: cc13 de3e b20b 263e 7480 5abf 843b 86bf
000000a0: 59aa 42bf b733 86bf 4e8c 4dbf a787 71bf
000000b0: 1e02 85bf ffcd 4bbf 6e70 24bf c517 95bf
000000c0: f0fc bd3f 1474 8240 4a5a 49c0 ff57 713d
000000d0: d1dc cd3f a397 0f3e fcbe 8d3e 6403 4d3d
000000e0: b7a1 09bd 4990 9c3e 1162 393d 6c07 7abe
000000f0: d947 a13d 0d06 87bd 77af 063e bc5d 3e3e
00000100: 22ca e9bd bf00 1abd 480c 9fbb 7e5a 3e3d
00000110: 7161 e8bd caa7 ecbd 93ec dc3d 43b6 18bf
00000120: b3a1 55bf 8564 a6bf c130 d7bf d294 0340
00000130: 5461 6e3f c2da 2dbe cab5 1f3e be08 7ebb
00000140: 1dc2 d6bf 81c9 853e 8d4c a2be bf6b 5d3f
00000150: 8d09 163e e082 f53e 63b7 98be 1f7c f13c
00000160: c4e8 1abe 605c 15bc 7bdf 7fbd 892b 90be
00000170: 4a41 a5bd e246 3cbd c2ed 23bf 85b4 b2bf
00000180: 63e4 e33f d01e 4440 abbd d7bf e5a6 bdbf
00000190: aa63 d53e 9b7b 283e b4c7 a3bd 8ca8 c73d
000001a0: 2224 823e 935e 8b3e ab8f afbd d54d 21bf
000001b0: 4151 26be 0205 08be c966 6bbe 7b1f 28be
000001c0: 65e4 0fbe 43df f7be d8ab acbe 4d64 66be
000001d0: 8d7d 7cbe ba0e 88be 9d8f 15bf a5e1 dbbe
000001e0: 786b 9bbf dba1 78bf 73f5 763f bb92 1bc0
000001f0: 82be bebe 6d09 223d 4bce 5cbd 8582 973c
00000200: db53 97bd a0f7 723e 9111 efbe 37ef 3fbf
00000210: 79c2 aabd d535 aa3e 0f16 a3bd 6157 81bd
00000220: 1069 9abd 9d6d 14be 7d42 a6be 9f53 abbe
00000230: eeb0 68be 0166 e5bd f044 bfbe 134c 6ebe
00000240: 1dc9 1f40 97b7 9640 89cf ccbf f223 94bf
00000250: b071 4bbf 00ca 1d3e 9260 d7bd 047a 1e3e
00000260: 6a38 88ba 5e27 1240 b04c b4bd c4fc 8d3f
00000270: 931f bc3d a29a be3e 77d7 fbbd 49a3 95be
00000280: caf9 acbe 4b1e 94bd 6bdf 5bbd 63b0 073d
00000290: d166 47be d133 23bc c90a 9abe 857f 3eba
000002a0: 47c9 113f 8a9c b73e 1d8c 7c3f 75f7 ccbf
000002b0: 5f77 d2be 0d99 033e c7b7 81bf 8bfb 30be
000002c0: 91cc ccbe 55f9 e63f 5678 86be fd50 663f
000002d0: 25c6 afbd 7cca a1ba 607f c4bd 33e5 9c3c
000002e0: 6b1e bebd 2133 4c3e 91b3 45be 8449 51be
000002f0: 01d0 9ebd 1ade 3ebe 0f49 073e 22a7 ee3d
00000300: 22f4 6d3f 131b 0f40 4804 113f 18c3 61bf
00000310: fd2b b1be b3a6 e43e 8765 843f e567 6abe
00000320: fd15 9c3e 127d 8c3e 3825 fcbe 7f04 efbe
00000330: 924f d6be d50e 1ebf 94a7 243f 2533 2d3f
00000340: 1ece 3d3f ba5d 523f 9c61 433f 0de1 493f
00000350: a4f8 063f aec8 553f 329d 023f a0ce de3e
00000360: 9683 c23e 2792 f0be cfeb 69be 6702 793f
00000370: 8602 99bf b0b3 a1be d8e1 75bf c5b9 58be
00000380: 0913 5bbf 2130 b33f f19b 253e 0400 383f
00000390: 1148 1fbe e4e5 253d 94a8 c9be 0bcf 03bf
000003a0: 09fd 1ebe 6068 c9be 8f89 d2be de2c 72be
000003b0: c4c2 bcbe a329 04bd da0f ddbe 08fc 74bf
000003c0: 65d3 84bf d742 c5bf 2754 63be 8c91 6cc0
000003d0: 271c e4be 6dd4 a63e 9ec4 203e bb62 92be
000003e0: c6a8 98be 1bc5 3ebe 28cd 2d3d 7d99 20bf
000003f0: 45bc 253f 7f61 01be 2388 e33e 8dbd ab3e

attention1.query.bias f4 [24]
0.6283486 -1.4664366 -0.38321722 -1.2799256 -0.31391394 -0.3410689 -0.073939845 0.5460985
0.18076058 -0.91623634 0.4911918 0.4100379 -1.7085251 1.002514 -0.6758003 -0.28272158
-0.7961586 0.18322551 0.2573903 1.0679379 -0.8599829 0.025840841 7.418643 3.403771
00000000: 74db 203f 32b4 bbbf 0c35 c4be 9ad4 a3bf
00000010: 54b9 a0be 95a0 aebe c66d 97bd 1ccd 0b3f
00000020: 4d19 393e 778e 6abf 7e7d fb3e 7df0 d13e
00000030: f3b0 dabf 6152 803f 4001 2dbf e2c0 90be
00000040: 0dd1 4bbf 789f 3b3e a9c8 833e 30b2 883f
00000050: d727 5cbf 2cb0 d33c 8665 ed40 62d7 5940

attention1.key.weight f4 [24, 24]
-1.9659576 -0.9006264 1.3066757 -0.60704786 -0.7796305 -0.70630705 -0.48082492 -0.9236298
-1.2790121 0.16974221 -0.4955455 0.28947836 -0.10998697 -0.7244705 0.10299549 0.17597872
0.09533743 0.106503814 0.19413911 0.08745482 0.08306304 0.034605566 0.32543632 0.09222972
0.13729997 1.299033 -0.26478133 -1.2285093 -0.011792778 0.080371074 -0.3528202 0.093037024
-0.41877908 -0.50825983 -0.24104519 -0.038658526 0.131076 -0.78263247 -1.1952167 -1.1397897
-1.0511771 -1.1165646 -0.9078327 -0.88781935 -0.89402103 -0.9021382 -1.0193262 -0.52290815
-2.2701187 -0.3273342 1.7256117 0.8055926 -1.2033871 -0.26678428 -0.81900734 0.108602725
-0.6949517 2.399914 0.31767717 0.99109447 0.26887587 -0.6657904 -0.09859912 -0.2521277
0.065488316 -0.13618623 0.0981147 -0.2375469 -0.2996273 -0.2819229 -0.15148446 -0.43978786
-3.0105538 -5.2545533 2.6613357 1.9498506 -0.86135525 -0.34635276 -1.2618625 0.08679351
-0.12397466 -1.8637488 0.028018491 0.493186 0.1828717 -0.47281078 -0.45015508 -0.61469424
-0.6302053 -0.70258194 -0.44682074 -0.66483605 -0.69074416 -0.5684702 -0.46048298 -0.22017094
1.8192736 1.8869286 -1.7461984 0.47827208 0.7623038 0.09565799 0.40315378 0.17122675
-0.61869997 -0.86868834 -0.31364548 0.5147325 0.23107764 -1.1791656 -0.3844435 -0.3745925
-0.15964945 -0.44150963 -0.47066098 -0.37634408 -0.452024 -0.3502588 -0.47961196 -0.4078635
3.03775 2.6611047 -2.3368194 0.7350562 0.6087737 0.1536895 0.16940093 0.3433617
-0.9282406 0.36852515 -0.101264685 -0.035054855 -0.08027596 -0.216809 -0.6294008 -0.6437697
-0.63560784 -0.8939854 -0.6658825 -0.81733125 -0.90681833 -0.8579984 -0.45327994 -0.80039996
-0.3121629 0.9683423 -0.55674064 -1.7085613 -0.97299135 0.5057041 -0.05896736 0.18064906
-1.0833988 0.7330944 -0.07822565 0.74351096 -0.26579824 0.7063622 0.9342796 0.971869
0.8523649 0.882586 1.1508255 0.82146454 0.9483619 1.0990185 0.98279476 0.524807
-1.1449786 -3.68617 1.5984334 0.5549323 -0.66709477 0.11567447 1.0828416 0.0015374653
0.115402795 1.4579905 -0.124755576 0.24142498 -0.09741013 1.2558683 0.5852716 0.64955366
0.5121579 0.5673098 0.5270959 0.5357335 0.81329393 0.64813614 0.74669033 0.68276536
-2.0995796 -0.7400568 -0.13508774 -1.182942 0.926888 0.19046044 0.783587 0.10430704
-0.7127269 -0.56844884 -0.30218264 0.40096968 -0.41907272 0.9918192 -0.64990985 -0.5291315
-0.89255196 -0.82358634 -0.7297776 -0.9207895 -0.771787 -0.90196043 -0.5147849 0.5580087
1.6428329 1.1735089 -0.18563935 -0.16704129 1.1327102 0.5395613 1.4799533 0.33169034
0.4392261 -2.7174332 0.33099478 -0.235043 -0.30591035 0.9491681 0.8110784 0.89357287
0.75938874 0.5456853 0.85128367 0.681052 0.9244971 0.5263925 0.6460492 1.2182968
-1.5055391 -3.2877617 1.9686962 0.26131234 0.31294382 0.18839623 0.36056566 0.12716463
-0.7802427 -2.0282438 -0.50872374 -1.0291741 -0.0987959 -0.9851795 -1.043188 -0.86100256
00000000: 80a4 fbbf 748f 66bf 2641 a73f 7d67 1bbf
00000010: dd95 47bf 8ad0 34bf af2e f6be 0173 6cbf
00000020: abb6 a3bf e7d0 2d3e 24b8 fdbe 8236 943e
00000030: d940 e1bd e676 39bf 4def d23d c433 343e
00000040: 4540 c33d ac1e da3d 67cc 463e 831b b33d
00000050: f51c aa3d 91be 0d3d 979f a63e efe2 bc3d
00000060: 5d98 0c3e b746 a63f 6b91 87be cb3f 9dbf
00000070: 7f36 41bc 9799 a43d d9a4 b4be 328a be3d
00000080: 366a d6be 511d 02bf 8dd4 76be 6758 1ebd
00000090: c938 063e 9a5a 48bf dcfc 98bf a1e4 91bf
000000a0: f98c 86bf 97eb 8ebf b967 68bf 2148 63bf
000000b0: 90de 64bf 87f2 66bf 4879 82bf 4fdd 05bf
000000c0: a049 11c0 5998 a7be d8e0 dc3f 513b 4e3f
000000d0: 9708 9abf f397 88be 77aa 51bf 1b6b de3d
000000e0: 5be8 31bf 3198 1940 95a6 a23e 5eb8 7d3f
000000f0: 19aa 893e 3d71 2abf 56ee c9bd e216 81be
00000100: bd1e 863d 6774 0bbe 5cf0 c83d 7f3f 73be
00000110: c068 99be 3358 90be be1e 1bbe e02b e1be
00000120: eaac 40c0 4d25 a8c0 5353 2a40 b494 f93f
00000130: c781 5cbf 2655 b1be b684 a1bf ccc0 b13d
00000140: 6de6 fdbd 528f eebf 0987 e53c e082 fc3e
00000150: b842 3b3e 4114 f2be ba7a e6be 9a5c 1dbf
00000160: 2255 21bf 69dc 33bf b0c5 e4be b232 2abf
00000170: 9cd4 30bf 4387 11bf 6dc4 ebbe 7e74 61be
00000180: f5dd e83f e086 f13f 6e83 dfbf 14e0 f43e
00000190: 5826 433f 56e8 c33d 2c6a ce3e 1156 2f3e
000001a0: 1f63 1ebf 5c62 5ebf 2496 a0be 82c5 033f
000001b0: 9e9f 6c3e e6ee 96bf c7d5 c4be 97ca bfbe
000001c0: 257b 23be 8d0d e2be 7afa f0be 2cb0 c0be
000001d0: b16f e7be 1f55 b3be b38f f5be 7cd3 d0be
000001e0: 7f6a 4240 8a4f 2a40 738e 15c0 a52c 3c3f
000001f0: 98d8 1b3f c860 1d3e 7077 2d3e 1bcd af3e
00000200: 2da1 6dbf 54af bc3e dc63 cfbd ae95 0fbd
00000210: b967 a4bd 2e03 5ebe 6920 21bf 17ce 24bf
00000220: 32b7 22bf 3adc 64bf 4777 2abf 9f3c 51bf
00000230: 3f25 68bf c8a5 5bbf 4f14 e8be 03e7 4cbf
00000240: d1d3 9fbe 48e5 773f 8e86 0ebf 23b2 dabf
00000250: f615 79bf d375 013f c287 71bd 11fc 383e
00000260: d0ac 8abf 13ac 3b3f c534 a0bd bc56 3e3f
00000270: b516 88be 27d4 343f f32c 6f3f 68cc 783f
00000280: 9634 5a3f 28f1 613f 404e 933f 804b 523f
00000290: d8c7 723f a3ac 8c3f 7098 7b3f c059 063f
000002a0: a98e 92bf 36ea 6bc0 7799 cc3f 0b10 0e3f
000002b0: b9c6 2abf bde6 ec3d 8e9a 8a3f c684 c93a
000002c0: 4d58 ec3d 6f9f ba3f da7f ffbd 1c38 773e
000002d0: f67e c7bd 4bc0 a03f 5cd4 153f 2649 263f
000002e0: c81c 033f 373b 113f c2ef 063f d525 093f
000002f0: 0834 503f 40ec 253f 1927 3f3f b6c9 2e3f
00000300: 835f 06c0 5d74 3dbf 7154 0abe a56a 97bf
00000310: 8848 6d3f 1008 433e 2899 483f ee9e d53d
00000320: 4575 36bf dd85 11bf afb7 9abe e64b cd3e
00000330: b390 d6be dde7 7d3f 7e60 26bf 2975 07bf
00000340: 497e 64bf 8ed6 52bf b4d2 3abf dcb8 6bbf
00000350: d593 45bf e1e6 66bf f1c8 03bf a8d9 0e3f
00000360: 5948 d23f 8a35 963f 3e18 3ebe df0c 2bbe
00000370: a6fc 903f b020 0a3f 1c6f bd3f 51d3 a93e
00000380: 3ee2 e03e 6dea 2dc0 2678 a93e 1daf 70be
00000390: 48a0 9cbe aefc 723f d6a2 4f3f 31c1 643f
000003a0: 4d67 423f 08b2 0b3f baed 593f 6d59 2e3f
000003b0: d8ab 6c3f a9c1 063f 7b63 253f 26f1 9b3f
000003c0: 81b5 c0bf b06a 52c0 3dfe fb3f bbca 853e
000003d0: 2c3a a03e f1ea 403e 109c b83e 7237 023e
000003e0: fcbd 47bf bfce 01c0 b83b 02bf fabb 83bf
000003f0: 8155 cabd b934 7cbf 2f87 85bf aa6a 5cbf

attention1.key.bias f4 [24]
0.17514268 -0.5616623 -0.46562237 -0.15140086 -0.2987131 -0.62338006 0.4247381 0.77265674
0.4055684 1.1170559 -0.87050813 -1.2231878 0.732562 0.31362972 0.35624677 1.180514
-0.45739013 0.04420883 0.9911666 0.9110805 -0.6165137 -0.48240373 -0.5222518 1.074098
00000000: 9a58 333e 1ac9 0fbf 0e66 eebe d408 1bbe
00000010: ecf0 98be d695 1fbf 4677 d93e d5cc 453f
00000020: a9a6 cf3e b0fb 8e3f 9fd9 5ebf 6b91 9cbf
00000030: 2f89 3b3f 1394 a03e fa65 b63e 151b 973f
00000040: 0a2f eabe 5114 353d 18bd 7d3f 923c 693f
00000050: d8d3 1dbf 9ffd f6be 4bb2 05bf 0b7c 893f

attention1.value.weight f4 [24, 24]
0.3397351 1.0159284 -0.6719629 0.21492453 0.25472155 -0.15075113 -0.049696002 -0.7762964
0.1257766 0.4641798 -0.26497623 0.6445273 0.20233586 0.54723823 1.0687176 1.0336472
1.0747083 0.7889526 0.94378114 0.67547446 0.82513326 0.7833798 0.50989324 0.10897269
1.3378175 -0.6596203 -1.2710707 -0.8747277 0.22798423 0.45437717 -1.1695528 0.011746909
0.56792754 -1.0365518 0.055279195 -1.0440848 -0.011848203 -0.08247729 -0.19993304 -0.28560418
-0.17242122 -0.33441138 -0.10516513 -0.3320957 -0.1946297 -0.22653565 -0.077575795 -0.31385234
-0.7261877 -1.672165 2.0409832 0.3723505 0.19799985 -0.06528647 -0.45983022 -0.011867545
-0.055468768 0.5377603 0.22402504 0.52452725 -0.13499084 -0.6651704 0.042646747 -0.01419351
0.3016955 0.076792315 0.27597848 0.2575927 -0.029278701 0.10779844 -0.16507314 -0.11082911
0.3614001 1.2806374 -0.3707446 -0.5209704 1.5345654 -1.1397948 -0.08482993 -0.07645071
1.2676802 -0.6050138 0.51299196 1.7239902 -0.4954908 0.3407268 -0.41618264 -0.5211417
-0.56272084 -0.5227946 -0.39901772 -0.48549816 -0.35500413 -0.49139032 -0.5369617 -0.16364454
-0.03225408 -2.4581697 -0.40934765 0.32302836 1.3038253 0.20079814 0.0413854 0.543064
0.4641795 -0.20944294 0.9194064 -0.18175754 1.2671387 0.2699681 0.3789659 0.26655105
0.4612189 0.5602544 0.46664333 0.5039659 0.5257899 0.63761437 0.29869294 0.0054661976
-0.35515663 -0.57388055 -0.45441714 0.19717161 -0.7330196 -0.19238354 -0.13717547 -0.1866764
0.16707984 -0.107970886 0.5452625 0.2758318 -0.2160299 -0.25854427 -0.013223659 0.2634624
0.17247356 0.068009675 -0.06848588 0.14775513 0.00022489554 0.28636092 -0.04683621 -0.23871435
0.33983678 -0.43256217 0.7132125 -1.5684022 -0.5713128 -0.43242905 -0.20872249 -0.32010555
0.7396098 0.40508887 0.26912895 -1.264102 0.04001384 -0.15129231 -0.08606173 -0.12635143
-0.14408752 -0.047342442 -0.29616675 -0.07334923 -0.021939436 -0.22317906 0.13029382 -0.19692184
-1.1175156 -0.29313105 -0.39229032 -1.5868368 -0.07501073 -0.32572573 -0.46030357 -0.15911043
0.16634764 -0.6823035 -0.066443406 -0.579785 -0.15903042 -0.13569987 0.11017196 0.27449396
0.20918187 0.087604895 0.12020362 0.32660982 0.2380741 -0.11734858 0.18555772 0.052834973
0.25416163 -0.21681853 -1.7853222 -1.0664016 1.2341057 0.3062581 0.713169 -1.0326159
-0.06897606 0.015602981 -0.67609346 -0.2093226 -1.6360742 -1.9708688 2.1470144 1.851232
1.7806169 2.0954905 2.0398214 2.0987296 1.7509667 1.7680284 1.0485575 0.35106188
0.015509419 -0.375134 0.7527296 -0.7083293 -0.53036207 -0.5366195 -0.6050132 -0.09572677
-0.4137397 -0.22961333 -0.025082916 0.40646878 -0.072801284 0.061256588 -0.17657042 -0.34742898
-0.122372136 -0.25059664 -0.07383677 -0.3033362 -0.07820126 -0.4088777 0.29695034 0.17468594
-1.2323227 -2.5530164 1.285932 -1.6244217 -1.2278413 0.18924506 0.8885736 0.14452618
0.06508775 0.012406476 -0.20668231 -0.027860554 -0.22524697 -0.013571568 -0.0031803993 0.03068998
00000000: c2f1 ad3e f109 823f c305 2cbf 2d15 5c3e
00000010: dd6a 823e 815e 1abe 098e 4bbd 5cbb 46bf
00000020: 95cb 003e faa8 ed3e f7aa 87be beff 243f
00000030: 2231 4f3e ce17 0c3f bdcb 883f 8d4e 843f
00000040: 0b90 893f ccf8 493f a49b 713f e5eb 2c3f
00000050: ef3b 533f 948b 483f 5d88 023f 132d df3d
00000060: 9b3d ab3f e0dc 28bf 72b2 a2bf 28ee 5fbf
00000070: b374 693e 20a4 e83e e8b3 95bf 1b76 403c
00000080: b363 113f bbad 84bf 706c 623d 92a4 85bf
00000090: f71e 42bc dae9 a8bd 3fbb 4cbe b63a 92be
000000a0: 308f 30be f837 abbe d160 d7bd 7308 aabe
000000b0: 024d 47be f6f8 67be 0fe0 9ebd 41b1 a0be
000000c0: 70e7 39bf 8109 d6bf 789f 0240 baa4 be3e
000000d0: 79c0 4a3e eab4 85bd de6e ebbe 1770 42bc
000000e0: 3833 63bd a9aa 093f d266 653e 6b47 063f
000000f0: 0a3b 0abe 9b48 2abf 5bae 2e3d e58b 68bc
00000100: d577 9a3e 4a45 9d3d 0d4d 8d3e 31e3 833e
00000110: e3d9 efbc 6ec5 dc3d ef08 29be 5ffa e2bd
00000120: 6f09 b93e edeb a33f 3cd2 bdbe 515e 05bf
00000130: a46c c43f cce4 91bf 50bb adbd 3192 9cbd
00000140: 5843 a23f 2fe2 1abf 7153 033f b6ab dc3f
00000150: f8b0 fdbe be73 ae3e e415 d5be 8b69 05bf
00000160: 790e 10bf ded5 05bf 0d4c ccbe 3793 f8be
00000170: 1ac3 b5be 8397 fbbe 5276 09bf 6f92 27be
00000180: db1c 04bd a752 1dc0 0496 d1be f963 a53e
00000190: bfe3 a63f 079e 4d3e bd83 293d 3e06 0b3f
000001a0: efa8 ed3e 3678 56be 385e 6b3f a61e 3abe
000001b0: 9a31 a23f 4239 8a3e d207 c23e 6179 883e
000001c0: e224 ec3e d56c 0f3f e0eb ee3e e903 013f
000001d0: 2b9a 063f b23a 233f 48ee 983e ca1d b33b
000001e0: 17d7 b5be d6e9 12bf 5da9 e8be 5be7 493e
000001f0: 2ca7 3bbf 3100 45be ba77 0cbe 1928 3fbe
00000200: fa16 2b3e d71f ddbd 5396 0b3f d339 8d3e
00000210: f136 5dbe ea5f 84be 0ca8 58bc 8be4 863e
00000220: e99c 303e a848 8b3d 5342 8cbd 1f4d 173e
00000230: f0d1 6b39 e69d 923e 53d7 3fbd 8971 74be
00000240: 16ff ad3e ca78 ddbe 1895 363f 67c1 c8bf
00000250: 8e41 12bf 5767 ddbe 59bb 55be e0e4 a3be
00000260: 1157 3d3f cf67 cf3e 45cb 893e 18ce a1bf
00000270: 8de5 233d 5fec 1abe 2241 b0bd 4562 01be
00000280: ae8b 13be 26ea 41bd 2ba3 97be 1f38 96bd
00000290: 55ba b3bc 0d89 64be be6b 053e e1a5 49be
000002a0: c00a 8fbf 4615 96be 47da c8be 781d cbbf
000002b0: 3a9f 99bd 86c5 a6be e9ac ebbe d8ed 22be
000002c0: 0957 2a3e 71ab 2ebf 7b13 88bd ca6c 14bf
000002d0: dfd8 22be e8f4 0abe d6a1 e13d 798a 8c3e
000002e0: c633 563e 326a b33d 512d f63d 6739 a73e
000002f0: b2c9 733e 7454 f0bd d802 3e3e 7c69 583d
00000300: 7921 823e ad05 5ebe 7085 e4bf d97f 88bf
00000310: 2df7 9d3f ddcd 9c3e 3e92 363f c22c 84bf
00000320: 5243 8dbd a5a3 7f3c 7614 2dbf aa58 56be
00000330: e16a d1bf 6e45 fcbf af68 0940 2cf5 ec3f
00000340: 41eb e33f 841c 0640 6f8c 0240 9651 0640
00000350: ad1f e03f c14e e23f 2237 863f 62be b33e
00000360: 381b 7e3c 9011 c0be e3b2 403f 1255 35bf
00000370: cfc5 07bf e55f 09bf 25e2 1abf 660c c4bd
00000380: b1d5 d3be c21f 6bbe b07a cdbc ad1c d03e
00000390: d718 95bd 30e8 7a3d e0ce 34be 36e2 b1be
000003a0: 3e9e fabd 344e 80be bc37 97bd e24e 9bbe
000003b0: fb27 a0bd 6b58 d1be e009 983e dfe0 323e
000003c0: c0bc 9dbf 9f64 23c0 6b99 a43f 0ded cfbf
000003d0: e729 9dbf 75c9 413e 8f79 633f acfe 133e
000003e0: ba4c 853d 8844 4b3c 87a4 53be d13b e4bc
000003f0: 24a7 66be 485b 5ebc 3f6e 50bb 8e69 fb3c

attention1.value.bias f4 [24]
0.18274136 -0.52958864 0.16190284 -0.07861111 0.097868025 -0.15590817 -0.35442355 0.45916712
0.6666763 0.14400451 -0.21298833 0.28923762 -0.91272014 0.8062009 -0.60071754 -0.30580783
0.35055307 0.7284757 0.2214052 0.20977491 -0.103962645 0.70561486 -0.21728797 -0.27725294
00000000: 8d20 3b3e 1f93 07bf dcc9 253e ddfe a0bd
00000010: 086f c83d 64a6 1fbe 0177 b5be f417 eb3e
00000020: 4cab 2a3f eb75 133e 9d19 5abe f416 943e
00000030: 07a8 69bf 2f63 4e3f a0c8 19bf d892 9cbe
00000040: b17b b33e 627d 3a3f 0bb8 623e 3ccf 563e
00000050: 5eea d4bd 2da3 343f bd80 5ebe 19f4 8dbe

fc_mean.weight f4 [4, 24]
0.667151 0.30236024 -0.9389831 0.10749212 -0.018413872 0.5251264 -0.97499514 0.8255374
-0.65735763 -0.28791988 -0.21740742 0.23154986 0.6487362 0.0512705 0.22005437 -0.46289265
-0.0026846933 0.8274711 0.8694571 0.1416829 -0.84299564 0.61866033 0.05742074 0.337923
0.38544387 0.4921316 0.042991716 0.9679917 -0.2032974 0.9449749 0.24926727 -0.1797783
-0.21713257 1.5189003 -0.50499266 1.1690956 0.6408565 0.5842781 -0.05583978 0.138732
-0.8896168 0.23631613 -0.14234865 0.17773965 -1.1148479 -0.95760334 -1.276419 0.10132652
0.38033146 -1.5276928 0.22119766 0.566266 0.16479781 0.21090388 -0.3118211 0.26904592
0.07197704 0.12034481 0.76893246 -0.332458 0.51492035 1.4966222 -1.6685128 -0.46998566
0.5204295 1.1990871 0.29433188 -0.642638 0.41799575 -1.3320042 -0.997433 -1.2803054
0.111430265 1.0493642 -1.0623642 0.19616884 1.4861592 0.070283376 0.46297753 0.042259865
-0.9064878 -1.0574911 0.626409 0.69595987 -0.49584877 0.17758818 -0.9950831 0.88703966
-0.74761695 -0.53729975 -0.44583583 0.0789969 0.17174128 0.0020080642 0.04320173 0.6334129
00000000: 68ca 2a3f f6ce 9a3e 3261 70bf d424 dc3d
00000010: b0d8 96bc af6e 063f 4899 79bf 6b56 533f
00000020: 9748 28bf 3c6a 93be 0da0 5ebe 681b 6d3e
00000030: 9313 263f 0401 523d ef55 613e 4400 edbe
00000040: aef1 2fbb 25d5 533f be94 5e3f 5215 113e
00000050: 90ce 57bf 8660 1e3f 0332 6b3d 3e04 ad3e
00000060: e658 c53e acf8 fb3e 1518 303d 4ece 773f
00000070: 322d 50be e0e9 713f eb3f 7f3e cd17 38be
00000080: 0058 5ebe 536b c23f 3347 01bf eda4 953f
00000090: 2c0f 243f 4093 153f 41b8 64bd c30f 0e3e
000000a0: edbd 63bf dbfc 713e d8c3 11be 6201 363e
000000b0: 56b3 8ebf 7e25 75bf b361 a3bf 4784 cf3d
000000c0: ceba c23e 708b c3bf a481 623e cff6 103f
000000d0: c2c0 283e 30f7 573e 04a7 9fbe 63c0 893e
000000e0: b368 933d 5777 f63d c2d8 443f ef37 aabe
000000f0: d2d1 033f 5191 bf3f d491 d5bf f6a1 f0be
00000100: de3a 053f b07b 993f abb2 963e ed83 24bf
00000110: 8a03 d63e 1d7f aabf c557 7fbf 0ce1 a3bf
00000120: 8d35 e43d 9151 863f 8dfb 87bf 7ce0 483e
00000130: 773a be3f bbf0 8f3d 640b ed3e ae18 2d3d
00000140: 960f 68bf de5b 87bf 575c 203f 6d2a 323f
00000150: e4df fdbe add9 353e c4bd 7ebf 0815 633f
00000160: d363 3fbf 7a8c 09bf 9844 e4be 20c9 a13d
00000170: f2dc 2f3e ba99 033b 4cf4 303d 5927 223f

fc_mean.bias f4 [4]
-0.044813532 -0.4986589 -0.9180644 0.36797792
00000000: 658e 37bd 3850 ffbe 4506 6bbf 9a67 bc3e

fc_logstd.weight f4 [4, 24]
0.038852878 0.08003618 -0.07095946 0.016726052 0.0018243945 0.0030531844 -0.12498261 0.06993697
-0.07315464 -0.014392557 -0.0029070755 0.06038959 0.15628262 -0.035535622 0.088208675 -0.0742093
-0.11227096 0.116536506 0.0496426 -0.025417598 -0.117275104 0.16859056 0.0042928145 0.09252385
-0.06653416 -0.04377058 0.008755213 -0.051011056 -0.017565522 0.008155007 -0.017798485 -0.0029134525
0.09281194 0.06819927 -0.013116457 0.065231204 0.061579034 -0.041180454 -0.04288557 -0.008025552
0.058214836 -0.053787153 0.0066666873 -0.0117290495 -0.03486572 0.17895901 0.01695042 -0.08518898
-0.037032727 0.074238695 0.030074928 -0.027433587 -0.08059041 0.06982662 -0.08533676 0.012594717
-0.019921321 0.0056216773 0.14946282 0.008012979 -0.017538674 0.088971965 0.007789842 -0.021226296
0.0076183337 0.02717941 -0.0144605255 -0.06751138 -0.04206801 0.009202356 0.1221322 -0.09933868
-0.012458137 -0.013302585 -0.07615661 -0.021316985 0.043685727 -0.11610841 -0.083320506 -0.011326963
0.1129385 0.039528694 0.06506415 -0.105021425 0.01832542 -0.053724606 0.11611523 -0.03498186
0.047893807 0.08298999 0.03895803 0.0064962655 -0.013118824 0.1258823 0.011178818 -0.02009085
00000000: 3224 1f3d 02ea a33d 3253 91bd 1305 893c
00000010: 8520 ef3a ef17 483b e2f6 ffbd 1d3b 8f3d
00000020: 1ad2 95bd c2ce 6bbc a284 3ebb 135b 773d
00000030: 8d08 203e cd8d 11bd c0a6 b43d 0cfb 97bd
00000040: 51ee e5bd b1aa ee3d 0a56 4b3d 9138 d0bc
00000050: ee2d f0bd 01a3 2c3e bdaa 8c3b 257d bd3d
00000060: 1043 88bd c848 33bd 0672 0f3c f8f0 50bd
00000070: 92e5 8fbc 949c 053c 21ce 91bc 9fef 3ebb
00000080: 3014 be3d 0fac 8b3d 68e6 56bc f097 853d
00000090: 4c3a 7c3d d6ac 28bd c8a8 2fbd 9b7d 03bc
000000a0: ae72 6e3d eb4f 5cbd 3a74 da3b 332b 40bc
000000b0: 5bcf 0ebd 0841 373e 9bdb 8a3c 8f77 aebd
000000c0: a1af 17bd 750a 983d b25f f63c 67bc e0bc
000000d0: 960c a5bd 4201 8f3d 0ac5 aebd 125a 4e3c
000000e0: 0a32 a3bc 0c36 b83b c80c 193e df48 033c
000000f0: 44ad 8fbc ef36 b63d ee41 ff3b c5e2 adbc
00000100: 37a3 f93b 5ba7 de3c d7eb 6cbc 6843 8abd
00000110: 814f 2cbd 7bc5 163c 7220 fa3d 1472 cbbd
00000120: 371d 4cbc 16f3 59bc fff7 9bbd f5a0 aebc
00000130: ceef 323d 3fca edbd f1a3 aabd ba94 39bc
00000140: 4d4c e73d d7e8 213d 5a40 853d 7915 d7bd
00000150: 311f 963c 550e 5cbd d2cd ed3d 2449 0fbd
00000160: 4c2c 443d a8f6 a93d 7592 1f3d a0de d43b
00000170: 56f0 56bc 4ae7 003e 5c27 373c 9195 a4bc

fc_logstd.bias f4 [4]
-0.04891473 0.07333352 0.1043143 0.06296001
00000000: d05a 48bd e22f 963d bca2 d53d 2df1 803d
