models/LunarLanderContinuous-v2__sac_continuous_action3__1__1737488051.pt (torch, 6642 bytes, 12 tensors)

action_scale f4 [1, 2]
1.0 1.0
00000000: 0000 803f 0000 803f

action_bias f4 [1, 2]
0.0 0.0
00000000: 0000 0000 0000 0000

attention1.query.weight f4 [8, 8]
-1.3496498 -3.4750452 -1.2975682 -1.2356 1.5215542 1.6972193 0.71147996 0.6413808
0.35389924 -0.32078063 1.303395 -0.79746246 -2.2652447 -1.9609562 -0.43045893 1.1828374
1.4610019 -0.1832823 1.5747888 -0.32536352 -0.49407205 -1.540565 -1.5383666 -1.0465572
0.120038725 -2.0753891 -0.92218345 1.9822772 -0.26945296 -0.6554371 1.0493393 1.5665213
0.22228278 -0.09244562 -0.75246376 0.21660654 -0.31358913 -1.2359105 1.2522454 0.88321805
0.4457015 -0.20179285 -0.801811 -0.07006302 0.7710235 0.2854526 0.17353149 0.07087673
-1.9570866 0.1988769 -1.6312389 0.680179 -1.3931695 -0.57510823 0.5625677 -0.122792296
1.1041434 -2.3465242 1.240256 -1.7595109 -0.7300956 -0.42606243 0.2678549 0.9039838
00000000: 53c1 acbf 2467 5ec0 b716 a6bf 2428 9ebf
00000010: 4ac2 c23f 7b3e d93f 8d23 363f 8831 243f
00000020: 4832 b53e 5c3d a4be a6d5 a63f 8026 4cbf
00000030: c5f9 10c0 9d00 fbbf 1d65 dcbe 3767 973f
00000040: 1c02 bb3f 5bae 3bbe ae92 c93f 0c96 a6be
00000050: 03f7 fcbe 3c31 c5bf 32e9 c4bf 96f5 85bf
00000060: ddd6 f53d 2dd3 04c0 3714 6cbf 42bb fd3f
00000070: bdf5 89be baca 27bf c050 863f c583 c83f
00000080: 199e 633e 2154 bdbd 77a1 40bf 1bce 5d3e
00000090: c18e a0be 5132 9ebf 9449 a03f 941a 623f
000000a0: fd32 e43e c9a2 4ebe 7c43 4dbf 337d 8fbd
000000b0: cc61 453f d826 923e 3db2 313e d227 913d
000000c0: d081 fabf 63a6 4b3e 70cc d0bf 3620 2e3f
000000d0: 6153 b2bf 4b3a 13bf 7004 103f 877a fbbd
000000e0: 9254 8d3f 742d 16c0 b5c0 9e3f a737 e1bf
000000f0: 8ce7 3abf db24 dabe 4724 893e 7b6b 673f

attention1.query.bias f4 [8]
-1.8017229 0.1330781 -0.012439194 -1.0279555 0.11786803 -0.7153741 0.91837925 0.12236065
00000000: db9e e6bf a045 083e c3cd 4bbc 0c94 83bf
00000010: cb64 f13d c222 37bf e71a 6b3f 3898 fa3d

attention1.key.weight f4 [8, 8]
-0.28428793 2.3403986 -1.7098722 -0.9760459 1.9367406 0.640495 -2.4736536 -2.1883051
0.5160506 -2.4158835 1.7433425 0.4905006 -0.44097716 0.17679118 -0.2642011 1.9546759
-0.2311943 3.3386528 1.3179218 -0.7878416 -0.15661334 -0.47725555 -1.2053581 -0.76634365
0.058751456 -0.78802264 -0.6689841 -0.10102481 1.0658276 0.6530412 0.5943586 0.049079176
-1.158194 0.41063395 -1.360124 0.10374994 0.9961265 1.1127264 0.44235542 1.1001618
-1.0172514 -1.3872937 -0.7375987 0.5581171 -1.1995182 -1.2178712 -0.36824608 1.6475962
1.8962193 -0.4270074 1.6009637 0.95709646 -1.1903181 -0.435289 0.73563945 -0.9771279
0.029619338 3.286638 -0.2480258 -1.1172621 0.2547498 0.056761976 -0.5936621 -2.66991
00000000: 308e 91be 17c9 1540 18dd dabf 25de 79bf
00000010: 1ee7 f73f 7bf7 233f 5750 1ec0 310d 0cc0
00000020: e41b 043f d69d 1ac0 d925 df3f e522 fb3e
00000030: c2c7 e1be bf08 353e 5e45 87be d232 fa3f
00000040: 33be 6cbe 7dac 5540 a9b1 a83f fdaf 49bf
00000050: 3f5f 20be d75a f4be 2d49 9abf 192f 44bf
00000060: 5ea5 703d dabb 49bf 8b42 2bbf 18e6 cebd
00000070: 0a6d 883f b52d 273f e327 183f 3f07 493d
00000080: b33f 94bf 9d3e d23e 8b18 aebf d97a d43d
00000090: 2502 7f3f d26d 8e3f 697c e23e 1ad2 8c3f
000000a0: 4b35 82bf d792 b1bf 45d3 3cbf c3e0 0e3f
000000b0: d089 99bf 34e3 9bbf c08a bcbe 6fe4 d23f
000000c0: 50b7 f23f b7a0 dabe 61ec cc3f 4604 753f
000000d0: 585c 98bf 33de debe de52 3c3f 0e25 7abf
000000e0: 41a4 f23c 4758 5240 7afa 7dbe 7202 8fbf
000000f0: 916e 823e 3f7f 683d 3dfa 17bf cedf 2ac0

attention1.key.bias f4 [8]
2.6311326 -3.0745704 1.6770838 0.3203751 0.97845507 -1.7483795 -1.6911824 2.111596
00000000: 7a64 2840 c3c5 44c0 afaa d63f 3508 a43e
00000010: 087c 7a3f e6ca dfbf aa78 d8bf 6424 0740

attention1.value.weight f4 [8, 8]
0.2762935 -1.3010681 0.95535 -0.12327778 -0.2857468 -0.18692029 0.084082 0.48934147
-0.51975787 0.14995301 -0.96559596 -0.5237568 0.28629416 -0.027443185 0.23546828 -0.12797686
-0.035979263 0.32777944 0.1406892 -0.07827084 -0.26401007 -0.36565143 -0.37693936 0.17152274
-0.047724474 -0.78024477 -0.3743768 -0.15886809 -0.3830022 0.140038 0.73694324 0.92721355
-0.29345793 0.19368474 -0.26762304 0.30044854 -0.18379375 -0.15581755 -0.4456741 0.15759821
0.1514447 0.7240566 -0.8680708 -0.49985984 0.7781995 -0.44402525 -0.12974614 0.031188155
0.59276235 0.1589372 0.123463914 -0.5981923 -0.26552692 -0.1812751 0.46049973 -0.11044188
0.28310686 -1.8154148 0.49495536 -0.110973865 -0.07129922 0.285751 -0.23772012 -0.08709482
00000000: 5776 8d3e 6689 a6bf d191 743f 1079 fcbd
00000010: 684d 92be 0868 3fbe 2f33 ac3d f78a fa3e
00000020: da0e 05bf 488d 193e 4c31 77bf ed14 06bf
00000030: 2695 923e 88d0 e0bc 991e 713e 5e0c 03be
00000040: fe5e 13bd b5d2 a73e d410 103e 764c a0bd
00000050: 542c 87be aa36 bbbe 32fe c0be a8a3 2f3e
00000060: bd7a 43bd 1fbe 47bf 51ae bfbe 51ae 22be
00000070: dd18 c4be 1f66 0f3e 50a8 3c3f de5d 6d3f
00000080: 1e40 96be 4b55 463e e305 89be 64d4 993e
00000090: 6e34 3cbe a38e 1fbe 652f e4be 6d61 213e
000000a0: 5214 1b3e c65b 393f e339 5ebf a1ed ffbe
000000b0: 1538 473f 4757 e3be 2cdc 04be 4d7e ff3c
000000c0: 46bf 173f 6fc0 223e a6da fc3d 2123 19bf
000000d0: 25f3 87be 2ea0 39be 9fc6 eb3e 5a2f e2bd
000000e0: 62f3 903e 835f e8bf ca6a fd3e 4446 e3bd
000000f0: 5305 92bd f44d 923e e76c 73be c55e b2bd

attention1.value.bias f4 [8]
-0.8911718 0.26579008 -0.7538049 0.024037551 -0.60193586 0.85030556 1.1338818 -0.94777614
00000000: d623 64bf a315 883e 5cf9 40bf 66ea c43c
00000010: 7818 1abf a0ad 593f 0a23 913f 75a1 72bf

fc_mean.weight f4 [2, 8]
0.11210076 -0.69295526 0.91017336 0.8583316 -0.12986463 1.6073247 0.8533892 -0.7198375
2.2706742 2.0199215 0.17089494 -0.29251918 2.1937993 -0.31814378 0.24201162 1.332047
00000000: 1595 e53d 8465 31bf 1f01 693f 9fbb 5b3f
00000010: 3cfb 04be d1bc cd3f b777 5a3f 4547 38bf
00000020: ba52 1140 6546 0140 15ff 2e3e 13c5 95be
00000030: 3567 0c40 bee3 a2be e5d1 773e 8480 aa3f

fc_mean.bias f4 [2]
-0.49839428 0.19069286
00000000: 892d ffbe fd44 433e

fc_logstd.weight f4 [2, 8]
-0.08935531 0.027629526 -0.30786887 0.27565098 0.14904514 0.03124307 -0.14538895 0.23976469
0.22390425 0.06374016 -0.25714147 0.23012602 0.18074642 -0.08527316 -0.17930037 0.09606864
00000000: ebff b6bd 5157 e23c fda0 9dbe 2022 8d3e
00000010: 4a9f 183e 77f1 ff3c d7e0 14be e084 753e
00000020: 2847 653e 338a 823d 0ca8 83be 28a6 6b3e
00000030: 9715 393e b2a3 aebd 849a 37be a3bf c43d

fc_logstd.bias f4 [2]
-0.3944416 -0.25112602
00000000: 40f4 c9be 9793 80be
